best_model.pth (torch, 394217 bytes, 81 tensors)

lstm.weight_ih_l0 f4 [80, 20]
00000000: 5f9b 09be 472e ff3c 884f fb3d 0b29 2a3e
00000010: 6d4d 0b3e 331d 4c3e 5750 1a3e 3e4a 3a3d
00000020: 7ca7 49be 04f6 053d 1e05 04be 739b 25be
00000030: b941 413e f6b3 243e a1c3 573e cefc 1a3e
00000040: 8056 86bc 9c6d 523e ea7d 8e3d 886f 3cbd
00000050: 0a1d 28bd bc73 6e3d 5fff 593e c484 343e
00000060: 9b1d 593d bd33 373b ca6b 363e ca15 edbd
00000070: 7062 543c 6931 34bd 1e43 793d 9add 3f3e
00000080: 8830 1dbe 56b8 55bc a255 f8bd d148 4abd
00000090: c445 563e b352 2b3e 5c39 393d cd33 44be
000000a0: 8afe 703d d867 3a3d 734b b63d 06d6 39be
000000b0: bd61 cc3d 46ab c1bd 05a6 00be 3d7a fa3d
000000c0: e1fd 9a3d 2fea 13be 94cf 443e 3d8d 383e
000000d0: 2aac 623e 8b5d bbbd a548 c63c 1b06 51be
000000e0: c702 3cbe e2e1 10bc 2101 223e 1f63 19be
000000f0: c168 20be 5e11 4fbe 442d 42be 2345 01be
00000100: b85a 39be 8dbc 40be ae02 363e 5131 0fbd
00000110: 958a 293d e883 1dbd 3444 febd 36af 1a3e
00000120: 1e5f ddbd cd8e d53c caed 42be 1e04 793d
00000130: cf77 07be 6466 38be 5fe5 2bbd 9ee0 2bbe
00000140: 47f3 abbd 8f5d ca3d b363 d5bd 87ba cd3d
00000150: 767a 1dbe 46f7 1c3e 8535 ad3d 4552 d3bd
00000160: 36fd d8bd 31b3 08be fcb7 c5bd 204c 40bd
00000170: 4abb ca3d d20a 1bbe 789e 7dbb 590c 20be
00000180: 95bf 0abe 9b0e 4fbd e723 cf3d e703 0bbe
00000190: 4e3e 57bc c548 a13c a1e1 d43d d19c 24be
000001a0: 40f7 e3bc 4211 bf3c 3780 8c3d 5014 1dbe
000001b0: 0753 5a3e 7539 9abd a3a5 373e 655b 1abe
000001c0: a38f 60be 9d4c c73d 8287 0bbc f212 213e
000001d0: b16d 493e 29f2 a53b 3166 393e 1641 393e
000001e0: aa50 4a3e 7785 383d ece4 1e3e aa49 1c3e
000001f0: e092 eabd 97ca 2abd e5c8 103d d0a7 08be
00000200: 0054 a4bd f496 febc 9550 213e c729 efbd
00000210: 5c59 c63c 62ee 5bbe eabb 4bbe 5b6c 043d
00000220: bd24 5c3d 035e bf3d 3a05 af3d 87f0 4dbe
00000230: 4888 9cbd ea92 f63c 1e9b 17be 81c9 d93d
00000240: 4512 53be 9cf3 493e 1c05 2d3e c944 23be
00000250: 1d89 20be 5322 b83d 4242 523e 32c4 1d3d
00000260: 641d 523e 860a 553e 5f1e 0a3e 6325 83bd
00000270: 4274 5c3d 4cf6 16bc 2533 38be f601 85bd
00000280: 2378 f03d b9b1 1b3e ff1f 153d 9732 4e3e
00000290: 767e 2a3e c011 91bd 8545 4abe 24e7 e5bd
000002a0: 259c 00bd 595a 29be c05a 31be fc78 fcbc
000002b0: d2d5 f23c 0464 69bd 993d 48be ec90 043e
000002c0: 84aa a23c 65fd 053d f15b d5bd 9b4d 5abe
000002d0: f051 f43d e449 383e 7040 90bd 6aa8 6bbd
000002e0: eaa9 2c3e a1d6 d3bd 5457 cbbc 4cf6 21be
000002f0: 7f0f 593e 4331 4d3c 15df 56be 8746 e2bd
00000300: cd56 4d3e 2e54 e9bd 8a41 21be 5d21 abbd
00000310: 0a9a 3f3e 0a1d 88bc a807 fa3d 0254 30be
00000320: c0dc 033e 4659 643e 124f 103e 4935 803d
00000330: c08d aebd 6149 2cbd bc07 86bd e1a6 ddbd
00000340: 633d 3b3d a940 c43d cad8 0bbd 6a0f 9fbc
00000350: 59ec 48be 5280 37be 94d5 463e 2b35 1f3e
00000360: dc79 dabd 71ee 343e 5cd2 df3d 1ebe 163e
00000370: fd98 103e 0572 4abe 5160 223e 0dac 27be
00000380: eed8 0fbe 3cc0 5b3e bf6f 27bd de45 103e
00000390: b080 44be a9b4 29be 7204 c8bc abdb 4f3e
000003a0: 3f55 313e 71dc f03d 38b6 1c3d 74be e3bd
000003b0: 48e1 5f3e f5bc 00bc 7634 4dbe 7c30 8cbd
000003c0: 34c3 dbbd f7a6 303e be48 b8bd 5adf bcbd
000003d0: 13ca e83d 688c 54be 4a17 3a3d f45d e43d
000003e0: 945a babd a3fc fe3b 0525 6cbd 98c5 cb3d
000003f0: d917 853d 1dc6 083e 2957 223e b3bb 6abd
-0.13438176 0.031149996 0.12271029 0.16617219 0.13603754 0.19933014 0.1506971 0.04548096
-0.19692796 0.032705322 -0.12892577 -0.1617258 0.18872727 0.16084275 0.2107072 0.151355
-0.016398668 0.20549625 0.0695761 -0.046004802 -0.04104332 0.05821584 0.21288823 0.17628771
0.05300675 0.0027954422 0.17814556 -0.115764216 0.012962922 -0.043992434 0.060855024 0.18736878
-0.15350544 -0.013044437 -0.12125708 -0.04938585 0.20925051 0.16730766 0.045220718 -0.19160385
0.058836497 0.04550919 0.089011095 -0.1814805 0.099795796 -0.09456496 -0.12563331 0.12230346
0.07567955 -0.14444803 0.1921981 0.18022628 0.22135988 -0.09148701 0.024204561 -0.20412485
-0.18360434 -0.008842917 0.15820743 -0.14979218 -0.1566496 -0.20221469 -0.1896258 -0.1262403
-0.18101013 -0.18821926 0.1777446 -0.03495914 0.041391928 -0.038455874 -0.124153525 0.151059
-0.10809158 0.02606907 -0.19036022 0.060794942 -0.13229297 -0.18007809 -0.041966792 -0.16784903
-0.08396011 0.09881126 -0.10419407 0.10045343 -0.15378746 0.15328702 0.08457474 -0.10318426
-0.10595171 -0.13349606 -0.09654233 -0.0469476 0.09899004 -0.15140846 -0.003869919 -0.1562971
-0.13549645 -0.05055104 0.1011427 -0.13575707 -0.013137413 0.01968802 0.10394598 -0.16075446
-0.027827859 0.023323659 0.068603925 -0.1533978 0.21320735 -0.0753049 0.17934279 -0.15073927
-0.21929793 0.0973141 -0.008516194 0.15729883 0.1967075 0.005064268 0.18105389 0.18091235
0.19757333 0.045049157 0.15517014 0.15262476 -0.114537954 -0.04169711 0.035347838 -0.13345265
-0.08023834 -0.03107784 0.15753396 -0.1167789 0.024212532 -0.21477655 -0.19895902 0.0323299
0.053745974 0.09344103 0.08545919 -0.20111285 -0.07643181 0.030099351 -0.14805266 0.10634137
-0.20612438 0.19721836 0.1689648 -0.15944208 -0.15677305 0.08990922 0.20533088 0.038517185
0.20519024 0.20804796 0.13488148 -0.06403615 0.05382181 -0.009213995 -0.1798826 -0.06494515
0.11741664 0.15204515 0.036407467 0.20136486 0.16649804 -0.07083464 -0.19753082 -0.11225727
-0.03139891 -0.16538371 -0.17319775 -0.030819409 0.029642973 -0.056980148 -0.19554748 0.12945908
0.019856699 0.03271236 -0.10417927 -0.21318667 0.11929691 0.17996937 -0.070435405 -0.05753366
0.16861692 -0.103436716 -0.024821915 -0.15816611 0.21197318 0.012523952 -0.20983537 -0.11048608
0.20052643 -0.11393009 -0.15747657 -0.08355973 0.18711105 -0.01661541 0.122084916 -0.17219546
0.12877178 0.2229968 0.14092663 0.06260163 -0.085231304 -0.042062167 -0.06544444 -0.10822845
0.04571284 0.095826454 -0.034142293 -0.01941653 -0.1962141 -0.17920044 0.19417411 0.15547626
-0.10667774 0.17669083 0.10928795 0.14720961 0.1412086 -0.19770057 0.15857054 -0.16374226
-0.14047596 0.2146005 -0.040878054 0.14089152 -0.19189715 -0.16572823 -0.024416182 0.2029864
0.17317675 0.11760796 0.038259715 -0.111203104 0.21863282 -0.007857551 -0.20039544 -0.06845185
-0.107305914 0.17251192 -0.089982495 -0.092222884 0.113666676 -0.20756686 0.045432366 0.11150733
-0.09099308 0.0077815815 -0.057652492 0.099497974 0.06498689 0.13356824 0.15853561 -0.05730791

lstm.weight_hh_l0 f4 [80, 20]
00000000: aded 50be 930e 1f3d a210 2dbe f404 24be
00000010: 718a 193e a6a6 1c3c 2dab 463e 5023 07be
00000020: 1f73 55be 2aa5 35be 4706 2dbe deaa 39bc
00000030: 7c71 ffbd 7291 d03c 5744 52be be79 f53d
00000040: a719 ca3d cf34 f2bd 1fa9 ca3d 8153 4b3e
00000050: ec73 1f3e 5839 62be 64f6 31be 6e31 113d
00000060: 799b cdbd fdc8 333c 8e46 acbd e874 153e
00000070: c15c 2b3e 3bcb 3a3e 712a 6b3d d9a7 32be
00000080: 6f74 0c3e 0860 2b3e 8a6b 3f3c 29e5 5c3e
00000090: faad fa3c 4b8a 64be c40d 4ebd 07bf 1ebd
000000a0: 2e5d 20be 0405 3abe 0c05 29be 7f6b 143e
000000b0: 2697 843d c8fe d43d 81f1 4b3e 8acc d2bc
000000c0: c5e5 cdbc 2b3d 0fbd 4cb3 43be b76e 4b3e
000000d0: a311 fb3d b998 4e3e 97e7 51bd 1e49 633d
000000e0: bb4d 0a3d b666 423c 47e3 153e 56bd 1abe
000000f0: 9c9c 19bd 462c 553e 7cc9 5d3d af4c 4bbe
00000100: 0dfd 3e3d 0c43 863a 1077 1b3e 5335 433e
00000110: a21f 3a3e c505 233e b5f0 523e 7e75 21bd
00000120: e6b1 70bd f3cf bdbd 9650 0fbe 298f 583e
00000130: 3a24 debd 5d59 b33d bdf0 1bbe 8d4e 5ebe
00000140: 5159 5ebe 5c2b ca3c 3042 3cbe 6ea1 383e
00000150: 868f 9e3d 3c91 0abd 4846 2fbc 5be3 d8ba
00000160: 3fb5 7b3d a7ac bfbd a2c0 54be c292 48be
00000170: 4e27 5a3e 67cc 093e f033 d83c c09c 163e
00000180: 3c8c 583e 6615 ef3d 318a b2bd f1dd ddbd
00000190: 0973 c0bd 6884 4fbe edda d63d 8a39 34be
000001a0: c2db 8f3c 2c1c fbbd 3645 0d3e 6265 a3bd
000001b0: b8f8 3ebd 8b8b 2cbe 4aa3 3f3e e159 26be
000001c0: e254 e23c 01e7 ab3d 81ae 473e 5797 303e
000001d0: dabb f93d 67c7 483d 30f6 17bd 271c 68bc
000001e0: 0aa2 4f3e a05f 2abe c214 323d db03 0939
000001f0: bfdc 60be cf7c 53be 132d 3cbe a347 59be
00000200: f99a 55be 2338 35be 4853 00be 0cba 5abd
00000210: 0165 8bbd 846e 2fbe c21e 08be a3b9 4c3e
00000220: 0d2c 0e3e e815 f9bd bffc c7bd a367 433c
00000230: e03d 32bc da8a 513e 331e 60be 459f 493e
00000240: 4a53 083e 7074 53bd 453a 9cbd 52e9 6e3d
00000250: f232 c23b 0c59 32be 096d 08be af9b d43d
00000260: c033 30bc ac94 193e 4ccb 413e b3ea f9bd
00000270: ea15 a9bc 011d 41be 795b c93d 9d3a e63c
00000280: 2808 bcbd 310f a93d a2a3 40be 5738 053e
00000290: 5573 5dbe 0f76 24bd 86a0 4fbe ffd0 3c3e
000002a0: 7a0e 59be b335 363e bbd8 063e ae1e 23be
000002b0: 3c05 8d3d 0f86 493d 366c 903c 0398 31be
000002c0: 2eba 4d3e d16f 823c 6abe 2f3d bfad fd3d
000002d0: 14f7 333e df3a 683d 76ee 5cbe c017 a3bd
000002e0: 64e4 503e 7887 4a3e dc63 633e 1e3a 303e
000002f0: ce45 bebd 3df3 e43d fee8 613d 2098 8b3d
00000300: cbb1 643e c224 34be d975 953d d298 6c3a
00000310: 7fac 7bbd a396 1abe de35 caba c5a2 513e
00000320: bd0e 1dbd 0fc1 26be f5d4 99bc eaaa da3d
00000330: 2d1a 563e 1def 243d ec4e 0ebe 8f95 21be
00000340: 90f5 0dbe 6f5d 523d f645 553e 545b 183e
00000350: bada ae3b c853 813c 811c 61bc 2727 343e
00000360: 72ca ebbd 0556 033d a88c 2dbd a835 ef3d
00000370: ce45 363e 9302 4bbe 7abb 1fbd 9ac2 4b3e
00000380: 1506 533e 2fcc 353e 9abe 39bd e8fa 053e
00000390: 0170 013e 8f11 b3bd fe45 5c3e cbb6 523c
000003a0: d1a5 bebc 6f6d 09be e755 453e 0096 40be
000003b0: b8a7 c73d 8d7f 9ebd ad46 1abe ca40 37be
000003c0: 5935 6ebd 7b77 c13d cc22 fc3d 290f 103e
000003d0: 0a71 043e c34b 4ebd cc45 67bd 79aa 0abd
000003e0: 5de9 47be 74be 3dbe e482 8fbd b094 923c
000003f0: fbe8 97bd 6e08 4fbe b180 0cbe 62ee 44be
-0.20403166 0.03883226 -0.16900876 -0.16017514 0.14994217 0.009561216 0.19401236 -0.13197064
-0.20844696 -0.17738786 -0.16896926 -0.011332242 -0.12472817 0.025459979 -0.20533882 0.11986111
0.09868174 -0.11826479 0.098955385 0.19856073 0.15571564 -0.22092187 -0.17379147 0.03544753
-0.1003942 0.010973212 -0.08411895 0.14595377 0.16734602 0.18241589 0.057413522 -0.17446841
0.13716291 0.16735852 0.011683354 0.21571793 0.030600537 -0.2231838 -0.050306097 -0.038756397
-0.15660545 -0.18165976 -0.16505831 0.14494132 0.06474142 0.10400158 0.19916345 -0.025732297
-0.025133977 -0.034970444 -0.19111365 0.19866453 0.12259223 0.20175447 -0.051246252 0.05548965
0.033765536 0.0118653085 0.1463748 -0.15111288 -0.03750287 0.2081767 0.05414723 -0.19853471
0.046628047 0.001024337 0.15182137 0.1906331 0.1817613 0.1592017 0.20599635 -0.03941869
-0.058763407 -0.09268179 -0.13995585 0.21148361 -0.108467534 0.08757279 -0.15228553 -0.21709652
-0.21713759 0.024678878 -0.18384624 0.1803033 0.07742219 -0.033829913 -0.010697909 -0.0016547249
0.061452147 -0.09359103 -0.20776609 -0.19587234 0.21304056 0.1345688 0.026391953 0.14708233
0.21147245 0.11674003 -0.08717764 -0.108333476 -0.09396941 -0.20265353 0.104909755 -0.17600074
0.017560843 -0.12261233 0.13795933 -0.079783216 -0.046623915 -0.16850106 0.18714634 -0.16245224
0.027628366 0.0839367 0.19500162 0.17245232 0.12194033 0.04901829 -0.037100017 -0.014166868
0.20276657 -0.1663804 0.043476827 0.00013066774 -0.21959208 -0.2065308 -0.1837657 -0.21218733
-0.20859899 -0.17697196 -0.1253177 -0.053400084 -0.06806374 -0.17132002 -0.13292983 0.1999269
0.13883992 -0.121623814 -0.09765004 0.011926564 -0.01087901 0.20463124 -0.2188652 0.19689663
0.13313022 -0.051624715 -0.076283015 0.05832798 0.0059264833 -0.17416781 -0.13322844 0.10381257
-0.010754526 0.1499812 0.18925208 -0.122029684 -0.020640332 -0.1885872 0.098319 0.02810412
-0.09181243 0.08254851 -0.18812421 0.13009773 -0.21626027 -0.040151652 -0.20276079 0.184391
-0.21196929 0.17793922 0.13168614 -0.15929672 0.06885764 0.049200114 0.017629724 -0.17343144
0.20090553 0.015922459 0.042906202 0.12386655 0.17574722 0.05669677 -0.2157534 -0.07963514
0.20399624 0.1977824 0.22206062 0.1720967 -0.09290658 0.111792065 0.05515384 0.06816125
0.22333448 -0.17592147 0.07297868 0.00090254575 -0.061443802 -0.15096526 -0.0015427431 0.20472248
-0.038344134 -0.16284584 -0.018778304 0.106771305 0.20908423 0.0402671 -0.13897294 -0.15779708
-0.13863206 0.051358636 0.20827469 0.14878589 0.005336133 0.01578702 -0.013739706 0.1759306
-0.11513223 0.032064456 -0.04237047 0.11680156 0.17800066 -0.198252 -0.03899715 0.19898453
0.20607789 0.17753671 -0.045347787 0.13083994 0.12640382 -0.087435834 0.21511075 0.012860964
-0.023272427 -0.13420652 0.1927105 -0.1880722 0.09748787 -0.07739172 -0.15066023 -0.17895809
-0.058156345 0.09446617 0.123113245 0.14068283 0.12933746 -0.05036522 -0.056463048 -0.03385398
-0.19522615 -0.18529683 -0.07007387 0.017893165 -0.074174844 -0.2021806 -0.13720967 -0.19231561

lstm.bias_ih_l0 f4 [80]
00000000: 9e8c b53d 0211 5d3e 90b0 a63c 29fe 573e
00000010: 97f3 453e a3d5 2d3e 54c4 a1bd 8e90 053d
00000020: 1beb 4dbe ffeb ac3c 163f d63d bf55 d23c
00000030: a1aa d83d f1b5 0abe 848d 46bd 2ff1 07be
00000040: b39f 2e3e f90d 33be 8158 23be b557 093e
00000050: 968e 3bbe 0dc4 a9bd a6b5 0bbe 3039 293d
00000060: d512 403e c433 28be 3bf5 6f3d 036f 5cbe
00000070: f41f 2cbb cdb4 4fbe 79bf 00bd 3923 843d
00000080: befa 163e b735 2b3e 55a7 333e a323 473e
00000090: 76b5 d0bd c9f8 a63c 7935 36be b2f1 e8bd
000000a0: dd85 d13d 878b 3a3e d7cb f23d 127c 903d
000000b0: 4735 fe3d 7a06 5c3e a66e 323d d538 073e
000000c0: fa1b b7bc fb7d 203e bf8b e83d cdb3 d1bc
000000d0: 3d11 b4bd 2ca7 dcbd 0393 363e 270b fbbd
000000e0: 0b28 50bd cf4e 31be ed34 fdba e475 e93d
000000f0: eb85 1cbe 82e2 063e 1da2 09be e3cc 40be
00000100: 98b1 a5bc 0df0 db3d 85d0 9dbd e77c b2bd
00000110: 5ce0 ddbd e569 04bd a8df 5bbe df3f 0b3d
00000120: 1ba6 86bc beaa 363e 3c8a 233e 2755 21bd
00000130: 2010 26bc 8ad7 233e e109 00bd e373 343e
0.08864711 0.21588519 0.020347863 0.21093048 0.19331203 0.16976027 -0.07898775 0.03260856
-0.20109217 0.021108625 0.104612514 0.025675653 0.1057942 -0.13545968 -0.048474804 -0.13275598
0.17053108 -0.17485799 -0.1595173 0.13412364 -0.18316111 -0.08289347 -0.13643512 0.041314304
0.18757184 -0.16425997 0.05858348 -0.21526723 -0.0026264163 -0.20283814 -0.031432603 0.06452031
0.14744088 0.1671971 0.17544301 0.19447188 -0.10190861 0.020382302 -0.17793836 -0.11374225
0.102306105 0.18217288 0.118552856 0.070549145 0.124125056 0.21486846 0.043562554 0.13205273
-0.022352207 0.15673058 0.113547795 -0.025598431 -0.087923504 -0.10774073 0.17829518 -0.122579865
-0.050819438 -0.1731522 -0.0019318141 0.11399439 -0.1528546 0.13172343 -0.13440748 -0.18828158
-0.020226285 0.107391454 -0.077057876 -0.087152295 -0.10833809 -0.03232755 -0.21472037 0.03399646
-0.016436627 0.1783857 0.15970701 -0.03938785 -0.01013568 0.1600019 -0.03125942 0.17622332

lstm.bias_hh_l0 f4 [80]
00000000: d464 173e 3d3d a63d 7bd3 22be 4c33 e83c
00000010: 2741 3f3e 197f 1bbd fd4d 58be edaf f6ba
00000020: ba42 9dbc ea1f 28be 1574 633e daee 2b3e
00000030: 94fc e63d 542b 8cbd 610b 00be 414d 39be
00000040: da4a 64be dcc4 d7bc 233b a53d fb63 59be
00000050: 532f 0b3d 94f9 d9bc 8c35 16be 3a34 6dbc
00000060: c289 173e 4411 b4bd 5022 293e daf0 88bc
00000070: f76f eabd 8c03 f33d 6690 35be 2077 98bc
00000080: 6413 f93d 6e66 a23c b68b 373e e3c7 bd3c
00000090: d25e f33d 7cb1 40be 6daf 4a3d 0c4a e83c
000000a0: 35b2 623e 02f8 29bd 2ccc 643e 1c85 9cbc
000000b0: 8839 12be bec2 193e 6b17 bd3d 7822 023e
000000c0: 7322 123d fc17 293d 2796 e6bd d4ec a93d
000000d0: 56a4 ecbc 9b6a 0d3e fa27 9cbb 6223 9ebd
000000e0: c0c8 16be b083 fbbc e713 28be a67c 0bbe
000000f0: 7a37 e9bd ce84 4dbd a900 a33c fd34 52bc
00000100: 1427 32be 02aa 323e 85b8 d0bd 6a88 debd
00000110: 7acb 313e 79e2 823d 31d8 6f3c 7292 033e
00000120: 47e0 063e c599 503e 76bf cdbd 2e9e 30be
00000130: 9e99 653d e40c 3a3e a187 9e3d 231a 1a3d
0.14784557 0.08117149 -0.15900986 0.028344773 0.18677197 -0.037963007 -0.211235 -0.001882074
-0.019196857 -0.16418424 0.2221225 0.16790333 0.11278644 -0.06844202 -0.1250434 -0.18095876
-0.22294179 -0.026338987 0.0806792 -0.21229546 0.03398068 -0.026608266 -0.14668864 -0.014477784
0.14798644 -0.08792356 0.16516995 -0.01671641 -0.11447137 0.11865911 -0.17730865 -0.01861149
0.121619016 0.019824233 0.17924389 0.023166602 0.1188332 -0.18817705 0.049483705 0.02835562
0.22138293 -0.041496284 0.2234351 -0.01910644 -0.14279759 0.15015694 0.09232982 0.12708461
0.035677385 0.04128264 -0.11259108 0.082971245 -0.028886955 0.13810198 -0.0047655078 -0.077215925
-0.14725018 -0.030702442 -0.16413842 -0.13621768 -0.113875344 -0.05017548 0.019897776 -0.012830016
-0.1739772 0.17447665 -0.10191444 -0.10865863 0.17362776 0.063908525 0.014638946 0.12848833
0.13171493 0.20371158 -0.10046284 -0.17247841 0.056054704 0.1816898 0.07740713 0.037622582

lstm.weight_ih_l0_reverse f4 [80, 20]
00000000: 2348 9d3d aec3 413e 948b 3fbe 992c a93d
00000010: 213f 43be 29a1 f93d 929b 4fbe 6fd4 3c3d
00000020: 41ba 6f3d ea4d 4fbd 87a4 693d 2d19 3bbe
00000030: bd65 9e3d 3117 55be 809f 013d fc5a efbd
00000040: ed88 4f3e db96 843d aaed 8fbd c6ce 523d
00000050: 8f9d 28be 02c7 423e d831 ea3c 666c ba3b
00000060: 1053 063e 5d0c 43be e8a1 213e fcdb 5d3e
00000070: 9f63 453e 03c7 2dbe 8c4e 09be 1f54 6fbd
00000080: 8efb b6bc ca78 3e3e edb4 5dbe 622d 20be
00000090: ea72 0abe 97b3 8cbc eb35 193d 773e 5b3e
000000a0: cff3 713d 9007 62be 4075 293e 5b13 06be
000000b0: 4930 24be 892e 503e a011 153e ea8c 20bd
000000c0: c4ec 30be 32c5 8a3d da01 babc e322 76bd
000000d0: ae2a bfbd 988e 25be 1bf0 78bd 09dd 093e
000000e0: 14c7 243e 2662 303d 7769 4dbe b978 4d3e
000000f0: 6646 32be 85ec a1bd 4f9a 36be 264d e03d
00000100: 26f6 5e3d 22d8 8bbd d26b 1dbe 0cd2 73bb
00000110: 5dc2 f0bd 526e 1fbe dac7 d7bd 02ef 82bd
00000120: 0b56 1f3e 0afe 15bd ae89 dabd 41d2 bcbc
00000130: a389 863d 98f0 d2bc 5692 993d 5f97 e8bd
00000140: a660 873d 0f79 e63d 306b 64bd 7395 53bd
00000150: 844a 173e e99d 40be e2e3 4ebe e049 eebd
00000160: 4b00 303e 5d4a b83d bb88 623e 4bea 2a3e
00000170: 6044 863d 35ad 04be 3eee 2a3e 422d 15be
00000180: 6a1d 963d edc2 883d 9df2 47be 1823 e7bd
00000190: 942f d2bd 3389 623e e997 0bbe e0e0 1a3e
000001a0: 18c2 48bd a685 6ebd f4d4 e23c 0601 16be
000001b0: 09fa 2cbe 832f 0abe 9fcc 463e 325e eebd
000001c0: 9ea4 a9bd e808 b2bd 4c47 35bd 6dd3 a3bd
000001d0: acce 443e 4cf5 83bd b851 64be 9fa8 30be
000001e0: e43e 923d 8a09 193e 2a7f 83bd e127 473e
000001f0: 214f 983d ab79 883c 228f 323e 8756 703d
00000200: 12a1 7f3d 6b0b 383e ea70 2539 da47 aabd
00000210: c7eb f4bd 319e e7bd cc9c 33be a5c3 163e
00000220: effe dabd 89a3 54bd 6bfc 573e 39aa 8bbc
00000230: 989a 583e 0a5a ccbd 0f2c 96bd 1329 213d
00000240: eaf4 fa39 abf2 91bd 90b8 363e 80d5 513e
00000250: 8b7e 1ebe 6a6a 54be c23a 18be 6679 073e
00000260: ff33 1a3e 9313 e2bd fec3 89bc 03db 17be
00000270: 8265 9b3d 8783 14be 3dbe 1b3e dfb9 14be
00000280: 2807 1e3e 3098 87bd a1ad bebd 9d97 dbbd
00000290: 96df 46be 4c36 5c3e 2b83 71bc 2cd2 9d3c
000002a0: 7671 38be 2158 66bc d1dd 08bd 7ad6 f93d
000002b0: 483a aabc f6c4 fe3b 1829 3b3e b64e 663d
000002c0: 9612 d5bd 4047 393d 18da c43c 872a fdbc
000002d0: 05dc febd 10e5 e93d ae16 49be 50b8 493e
000002e0: 09ae 5abe 0bf8 5a3e dc8c 0abe 92ad 45bc
000002f0: edd7 32be d0a2 37be 9f2b ef3d 0d5b 473e
00000300: cc72 0cbd 0be6 0e3e 20e3 9e3d 7487 f63c
00000310: 4e07 dcbd d279 50be 26a8 0bbe 7125 f6bd
00000320: d15a f0bd 3573 2d3e 7815 e73d fdb3 fb3c
00000330: f21d 5fbe d309 ed3d 8dcc 05be 7650 0b3e
00000340: 5a32 aebc b6dc 10be 4535 3d3e f687 4a3e
00000350: 4b55 fdbd a58c 0fbe 47a9 2bbd 17ee 143e
00000360: 777f bc3d 4384 0dbe e9e1 dc3b 2ce8 59be
00000370: 3baa bcbc 337d d2bd 9877 05be 8d45 5a3b
00000380: 05ed 1ebe fd54 03bd 3678 033e 6d61 d83d
00000390: c7af 1ebe 1de7 063e 2e1b cdbd 9137 cf3d
000003a0: e74a eabd dae7 be3d 5b62 58be 6641 4e3e
000003b0: 5dbc b2bd d1c8 7f3d 171e bfbd 15e3 fabd
000003c0: 88bb 3dbd 3573 523d 7cb1 39be cf18 5a3e
000003d0: 4054 21be c54b 503e 5772 52be 5c1f c5bc
000003e0: f0e7 76bd d8ef d4bd dcd2 2f3e 43db 4f3d
000003f0: 989b febd 438c 41be b48f 0dbe 2763 ccbc
0.076797746 0.18922302 -0.18705589 0.082604595 -0.1906705 0.12188942 -0.20274189 0.04610103
0.058527235 -0.050611414 0.05704167 -0.18271323 0.07734249 -0.20809628 0.03164625 -0.11687276
0.20267077 0.06474086 -0.07027753 0.051466726 -0.16466354 0.19021228 0.02858822 0.0056891916
0.13117623 -0.19047685 0.15784419 0.21665949 0.19276284 -0.16970448 -0.1340887 -0.058429834
-0.022336747 0.18600765 -0.21651049 -0.15642312 -0.13520399 -0.017175479 0.037404936 0.21410547
0.059070405 -0.22073197 0.16548634 -0.13093321 -0.16034044 0.20330252 0.14557505 -0.039196886
-0.17277819 0.06775893 -0.022705961 -0.060091864 -0.093343124 -0.16167676 -0.060775857 0.13463224
0.16091567 0.04306235 -0.20059763 0.20065583 -0.17409667 -0.07906441 -0.17832302 0.10952215
0.054433964 -0.068283334 -0.15373161 -0.0037204055 -0.11755822 -0.15569428 -0.105361655 -0.06393243
0.15560167 -0.036619224 -0.106707916 -0.023049476 0.06569221 -0.02574949 0.074986145 -0.11356997
0.06610231 0.11253559 -0.055766284 -0.051656198 0.14774519 -0.18810238 -0.20204118 -0.11635184
0.17187612 0.08998559 0.22122471 0.16690938 0.0655601 -0.12956698 0.16692445 -0.14568046
0.07329829 0.06677804 -0.19526143 -0.112859905 -0.10262981 0.2212265 -0.13632168 0.15124846
-0.049013227 -0.058232926 0.027689435 -0.14648828 -0.16892256 -0.13494687 0.19413994 -0.1163906
-0.08283351 -0.08693105 -0.044257447 -0.07999311 0.19219464 -0.06443271 -0.22296798 -0.17251824
0.07140902 0.14945045 -0.06420739 0.19448806 0.07436968 0.016659578 0.17437413 0.05867627
0.062409468 0.17973106 0.0001577769 -0.08314486 -0.119590335 -0.113094695 -0.17540282 0.1472307
-0.10693156 -0.05191377 0.21092384 -0.017048942 0.21152723 -0.09978111 -0.07332622 0.039345812
0.0004786619 -0.07126363 0.17843843 0.204916 -0.1547796 -0.20743719 -0.14866164 0.13229904
0.15058897 -0.1103889 -0.01681709 -0.1482964 0.075877205 -0.14503299 0.15209289 -0.14524029
0.15432417 -0.06620824 -0.09310461 -0.10722277 -0.19421229 0.21505088 -0.014740746 0.019265257
-0.18012032 -0.0140590975 -0.033414666 0.12199111 -0.020779744 0.0077749444 0.18277395 0.05622741
-0.104039356 0.045233965 0.024029776 -0.030904068 -0.12444309 0.11420643 -0.19637558 0.19699216
-0.21355452 0.21383683 -0.13530296 -0.012065308 -0.17465182 -0.17933202 0.11678242 0.19468327
-0.034289166 0.13954942 0.077581644 0.030093886 -0.10743581 -0.20358971 -0.13638362 -0.1201886
-0.11736072 0.16938479 0.11283392 0.030725474 -0.21788767 0.115741394 -0.13066311 0.13604912
-0.021264244 -0.14146695 0.18477352 0.19778427 -0.12369784 -0.14018495 -0.041909482 0.14543949
0.092039995 -0.13819985 0.006740798 -0.21279973 -0.023030391 -0.10277786 -0.13033903 0.0033305616
-0.15520103 -0.032063473 0.12838826 0.105654575 -0.15496741 0.131741 -0.1001495 0.1011802
-0.11440068 0.09321566 -0.2113127 0.20142135 -0.08727334 0.062447373 -0.09331911 -0.12250344
-0.04632142 0.0513794 -0.18134111 0.21298526 -0.15754795 0.20341404 -0.2055143 -0.024062805
-0.060279787 -0.10397309 0.1717028 0.050746214 -0.12432021 -0.18901162 -0.1382435 -0.024949623

lstm.weight_hh_l0_reverse f4 [80, 20]
00000000: fda1 4e3e aae5 3b3e f6b8 1ebd 4fd9 b9bd
00000010: b2d4 e73d fe57 003e f217 5cbe d435 963d
00000020: eccd 9d3c a65f d63d 57c9 133e e3d4 fb3d
00000030: 1ced 13be 0b62 f7bd c36d 643c f7c0 34be
00000040: 207f 233e 041e 5cbe 7ec6 913d 392a c03d
00000050: 9878 3b3e 904f 593e 0bf4 5cbe aae0 c5bd
00000060: 9dc8 5bbc 90d8 05be f67b 37be c642 d53c
00000070: a562 2fbe d7c9 d13d 66c7 9e3d 612b 18be
00000080: 7e28 1fbe c1de 913d 7810 9cbd d79c adbd
00000090: 7d0c f1bd a585 1cbe f211 a93d 002d 88bd
000000a0: dca0 b0bd 7628 16be 629e 983d 153c edbd
000000b0: 783f 513d 28d2 063d 66b9 093d 92fa 04be
000000c0: 58d5 533e 2c3d 2cbe 5ce0 c6bc c1c1 413e
000000d0: 2f0e dd3c cbc7 af3d 50bc 62be fc3a 483e
000000e0: 79ad 253e 4b19 37be 7c00 dbba 3d8c 9dbd
000000f0: 56fd 1bbe dece 443e 72d6 33be 8b04 cebd
00000100: c52e 96bd 289b 063e dd66 0bbc bd22 e2bd
00000110: 7ebe ca3b 1bc3 5ebe 871e 0dbe 9f2b 453e
00000120: d4f0 413e feca 98bd 6550 bbbd 0825 363e
00000130: 518b 5abc d999 513e 8c2a abbc 6123 433d
00000140: 760f 5b3e 1c28 0a3e c056 41bd dc08 a73d
00000150: 386e 2d3d 7935 57be 3546 163d 28fd 3b3e
00000160: d923 8abd a0cf c9bc e73a 623e 5e31 09be
00000170: e612 57be 6eb9 1bbe 00a3 61be cdf2 513e
00000180: 0bce 223e 79d0 24be 703c 19be 7def b2bd
00000190: 5e85 913d 49e1 4c3e 59c1 903d d774 3bbd
000001a0: fa78 3abe 1319 cfbd 717f 02bd d305 e43d
000001b0: a50d 5fbe 42a4 a43d 2cac d4bd e68a 1ebe
000001c0: 0780 3e3e c0d5 8f3d c392 ef3c 321e 2dbc
000001d0: c1e9 e5bd f172 1cbd 0252 42be 2c79 593e
000001e0: 2ef1 4ebe 93ec 173d 6184 8cbd 657b 333e
000001f0: 89ed 6b3b 82a9 01bd 6a9d 62be c9c8 b0bd
00000200: 766a e23d 68a5 c3bd 13fe 37bd 42d3 a33d
00000210: ff81 db3d 500c 303d fd49 533e e16a 25bc
00000220: 56dd 21be bc6e b33d a8ae 95bc 398d 5abe
00000230: c389 203e 3b70 d23d 5dcd 393e 4688 0d3e
00000240: a2a4 b83d bab5 5c3e c2f5 4bbe a54d 873d
00000250: b47a fb3d 1945 3c3e bc9c 12be 9a71 8fbd
00000260: 965f 483e 8598 303e e837 0c3d 2ff3 103e
00000270: 24b1 1d3e c78c 403b b9c3 bebc 7617 dbbc
00000280: aac3 f9bd c7f8 a03d 81fd 03be 77ac 4c3d
00000290: 318f 463d b9b8 543d e3fd 3dbd 9e3d 21be
000002a0: e3b8 ab3d af8e bbbd 62e7 303e 8612 b3bb
000002b0: 6da6 3a3e 4746 22be e874 50be 8bd1 e2bd
000002c0: b17f 903d abc9 df3d bc44 cf3d 58fa 163e
000002d0: 0a5c 4c3e 0ce0 25be f2d8 5d3e c108 4abd
000002e0: 8940 e3bd 5794 3abe 3435 f43d 01ed eabc
000002f0: 7cef e5bd e340 5cbe 01e2 153d 911f 32be
00000300: 4798 d73d fa8f 1a3e 1409 12be 5ee0 ff3d
00000310: 052b d73d fb4c 35be 78e2 603e 9ede f53d
00000320: f98b f2bc c4aa 4b3e 7693 343e d265 723d
00000330: b4da b93d 8dde 49bd e76e 34bc ae78 40be
00000340: b17e 55be a7f3 8cbc 8c52 31be 7e4d 5d3d
00000350: 997a 943d c4dd 1bbe 76bf 27bd 4b61 dbbd
00000360: 97b6 5dbe 40e6 943c d14d 033e 36a7 953d
00000370: 0260 1bbe 3517 11be eae2 033e 325d 95bd
00000380: 717a b9bd 619a 52be 62c5 61bd c607 76bb
00000390: c221 16bd eebd 8c3d 1ce6 04bc dc75 333d
000003a0: bfbe a53d b11c d6bd 1769 3f3e 4a88 4fbe
000003b0: 9d2d 463d 6373 e9bc 2772 30be 638a e6bc
000003c0: bef3 4d3e d2a5 44be 058b 373e 751e 18be
000003d0: 3f58 783d dc76 01be 8981 1f3d 2495 21be
000003e0: f964 fc3d e954 323e 3b83 163e c9e5 07be
000003f0: b315 bcbc 7492 1bbe 3344 10be 94e1 91bd
0.20178981 0.18349329 -0.03875061 -0.090746514 0.11319865 0.12533566 -0.2149351 0.07334486
0.01926323 0.10467462 0.14432274 0.12296464 -0.14445919 -0.12079247 0.013942185 -0.17651735
0.15966463 -0.21495825 0.071179375 0.09383053 0.18307722 0.21221757 -0.2157747 -0.09661992
-0.013414529 -0.13070893 -0.17918381 0.026032817 -0.17127474 0.10243576 0.07752876 -0.14860298
-0.1554279 0.07122565 -0.07620329 -0.084771805 -0.1176996 -0.15285356 0.08255376 -0.06649208
-0.086244315 -0.14663872 0.07452084 -0.11583725 0.05108592 0.032915264 0.033624075 -0.1298621
0.20686853 -0.1682021 -0.024276905 0.18921567 0.026984302 0.08583029 -0.22142148 0.19553751
0.16179456 -0.17880742 -0.0016708518 -0.07692764 -0.15233359 0.19219539 -0.17562273 -0.1005946
-0.07333139 0.13145125 -0.008508411 -0.11041782 0.006187259 -0.21754114 -0.13781177 0.19254921
0.18939525 -0.07460593 -0.091461934 0.17787564 -0.01333888 0.20468844 -0.020894311 0.04764116
0.21392617 0.13491863 -0.047201872 0.08155987 0.04234144 -0.21016492 0.03668805 0.1835829
-0.06745119 -0.024635136 0.22092782 -0.13397738 -0.21003303 -0.15207455 -0.22034836 0.20502777
0.15898912 -0.16095151 -0.14964461 -0.08737085 0.07105516 0.20007814 0.07068128 -0.045765724
-0.18210211 -0.101122044 -0.03185982 0.111339234 -0.21782549 0.08039142 -0.10384402 -0.15482673
0.18603526 0.070231915 0.029244786 -0.010566281 -0.11226226 -0.038195554 -0.18976596 0.2123763
-0.2020919 0.03709085 -0.06861187 0.1752754 0.0035999736 -0.031655796 -0.22130361 -0.08632047
0.11055462 -0.09553033 -0.04492004 0.079992786 0.10718154 0.042980492 0.20633693 -0.010096283
-0.15807089 0.08761355 -0.01827176 -0.21342935 0.15677552 0.102753125 0.18144746 0.13821515
0.09015776 0.21553698 -0.19917968 0.066066064 0.12279263 0.18385734 -0.14317602 -0.0700409
0.19567713 0.17245682 0.034233004 0.14155267 0.15399605 0.0029380785 -0.023286687 -0.026744585
-0.12195523 0.078599505 -0.12889673 0.049969163 0.0484764 0.051933978 -0.046384703 -0.15746161
0.08384874 -0.09158074 0.17275766 -0.0054648547 0.18227549 -0.15847121 -0.20357096 -0.110751234
0.07055605 0.10927137 0.10120532 0.14743936 0.19956985 -0.16198748 0.2166479 -0.049324755
-0.110962935 -0.1822065 0.1192421 -0.028677465 -0.11227319 -0.21509127 0.036592487 -0.17394854
0.105270915 0.15093985 -0.14261276 0.124939665 0.10506252 -0.17705147 0.21961391 0.120053515
-0.02960776 0.1988936 0.17634377 0.059179135 0.090749174 -0.049284507 -0.011012769 -0.18796036
-0.2084911 -0.017206026 -0.17316645 0.05402898 0.07249946 -0.15221316 -0.040954076 -0.107119165
-0.21651684 0.018176198 0.12822653 0.073072836 -0.15173343 -0.14169009 0.1287953 -0.07293166
-0.09056557 -0.20566703 -0.05511988 -0.0037541254 -0.036653288 0.06872164 -0.008111503 0.04381357
0.080930226 -0.10454691 0.18692432 -0.20266834 0.048383344 -0.028497403 -0.17231046 -0.02814216
0.20112512 -0.1920388 0.17924125 -0.14855368 0.060631033 -0.12642998 0.038941894 -0.15779549
0.123239465 0.17415203 0.14698498 -0.1327125 -0.022959566 -0.15192586 -0.14088516 -0.07123104

lstm.bias_ih_l0_reverse f4 [80]
00000000: eb82 e43d 6902 cb3d 10d4 1dbe abdc 573e
00000010: 3db5 64be 87a4 873d a0cf f1bd 117a bb3d
00000020: 63cb c03c ffb7 253e fb0a f23d 3cf5 533d
00000030: 027a a13d 9985 f1bd ec5b 3f3e 943d 9b3c
00000040: cd0c b63d ff0c afbd 72e5 64bd 7949 1fbe
00000050: 3b90 1abd 7a5c 57be 3866 b13d ce11 33be
00000060: 2bac e1bb d424 233e e9ca 023e 2dbe 74bd
00000070: 39dd 323d 5119 53bd 69ed 87bd 5ca6 363e
00000080: e1e6 f8bc a1ec 23be 9fa5 2ebc 7bfb 3cbd
00000090: 75bd acbd 7793 123e cb39 7e3d 528f 39be
000000a0: b5ad d93d ba23 f0bd 8f2f c03d 97d0 3b3e
000000b0: dff5 993d 4194 0abd 6c21 34bc 42f1 183e
000000c0: 1e0a 373e 43a6 31be 8985 143e 5583 58be
000000d0: 84df 053d afe5 90bd a951 35be 7c75 f03d
000000e0: 1d0f 33be eafa 3ebe b588 47bd 0c29 473e
000000f0: f13b 5dbd 8bb2 62be ff08 8f3d 280e 5ebd
00000100: a0b3 c63d 4ed9 3f3d f807 573b b833 443e
00000110: 794f a6bd d558 04be b396 9b3d 8d35 57be
00000120: 57f1 0d3e 2528 693c b23b f0bc c7f2 e3bc
00000130: 0819 53be 72fc 12be 4fb0 433c 2bda 00be
0.11157783 0.09912569 -0.15412927 0.21080272 -0.22334762 0.06623178 -0.118071795 0.09154142
0.023534482 0.1618347 0.118185006 0.051747546 0.07884599 -0.1179306 0.18687409 0.018950261
0.0888916 -0.08547401 -0.05588288 -0.15555371 -0.037735205 -0.21031371 0.08662075 -0.1748726
-0.006886979 0.15932018 0.12772717 -0.05975168 0.043668006 -0.051537815 -0.06637079 0.17836899
-0.03038353 -0.16008236 -0.010659604 -0.046138268 -0.084345736 0.14314066 0.062066834 -0.18121079
0.10628835 -0.11725564 0.09384071 0.1834129 0.07517599 -0.033832792 -0.0109942965 0.14935783
0.17874953 -0.1734858 0.14504065 -0.21143849 0.032683864 -0.07075059 -0.17706932 0.11741158
-0.17486234 -0.18650404 -0.04871436 0.19449252 -0.054012243 -0.22138421 0.06984138 -0.05421272
0.097022295 0.046838097 0.0032811146 0.19160354 -0.08120627 -0.12924512 0.07597103 -0.21016522
0.13861595 0.014230763 -0.02932534 -0.027825726 -0.20615017 -0.14354113 0.011943891 -0.12583224

lstm.bias_hh_l0_reverse f4 [80]
00000000: 8557 e03d 0b43 3cbe 89fe ed3c f5e5 2bbd
00000010: 7776 db3d 386d 2d3e c5f6 f03d 2e2c 00be
00000020: b06c f4bd a923 06bd b53e 2f3d 9f50 163e
00000030: fa3b 09be 08a3 623c 3d75 9f3d efbb 3abe
00000040: ebda 5a3c b8ec 453e 1fdf 60bb 8e28 913d
00000050: b586 afbd cdc4 283d d5bb 63be e543 833d
00000060: 9db9 5dbe bda5 b2bd 2e41 54bd 7693 babd
00000070: 070d fe3d a4dd 133e ed9d 2ebe 0644 52be
00000080: 4812 253e 5a58 2f3e 1d7b 143e b13a 11be
00000090: 0238 8fbd 12ca 643e 9226 2abe 713c fabc
000000a0: 7f11 3ebe d632 e23d a52c 963d 83be c6bd
000000b0: 9125 623e dacd 16be e8e5 5bbb ae29 bb3d
000000c0: e365 d23d 2819 203e 187d ddbb 1d08 253e
000000d0: 6345 60be 0021 0bbe 9184 543d 0d71 b2bd
000000e0: 3554 1b3e a98b c0bb c175 90bd 6c1c 363e
000000f0: 0325 85bd f07f 3a3d 2ff1 163d 51ec 49be
00000100: 7ea9 46be d47a fabc fba6 483d c478 a33d
00000110: 4bc6 6bbd 0acd 04be d9b3 4d3c 95a2 ef3c
00000120: 41a6 04be 1f14 c43d 8226 c93d 705a 21bb
00000130: 9acf ec3c c8e8 62be cddd 553e 9242 59be
0.10954193 -0.1838495 0.029052036 -0.04196735 0.10715955 0.16936195 0.117658176 -0.12516853
-0.11934793 -0.032748852 0.04278441 0.14679192 -0.13401785 0.013832815 0.07786033 -0.18235753
0.013357858 0.19328582 -0.0034312678 0.07087813 -0.08570615 0.04120331 -0.22239621 0.06409434
-0.21652837 -0.08723018 -0.051819973 -0.09110157 0.124048285 0.14440018 -0.17052431 -0.20533761
0.16120255 0.17123547 0.14500089 -0.14182545 -0.069931045 0.22342709 -0.16616276 -0.030546399
-0.18561362 0.110448524 0.07332734 -0.09704306 0.22084643 -0.14726964 -0.0033553783 0.09138809
0.102733396 0.15634596 -0.006759297 0.16116376 -0.21901469 -0.13586807 0.051884238 -0.08712969
0.15168841 -0.005876024 -0.0705371 0.1778428 -0.065012 0.045532167 0.036851104 -0.19719054
-0.19400594 -0.030576147 0.04898737 0.079820186 -0.057562154 -0.12968841 0.012555086 0.02925233
-0.12954046 0.0957415 0.09821798 -0.0024620555 0.028907586 -0.22159111 0.20885392 -0.21216801

lstm.weight_ih_l1 f4 [80, 40]
00000000: fcba 61bd 544e 963d 67fd 27bc 0de6 153e
00000010: a367 c4bd 2fbb 273e 6d20 853e 93d1 56bd
00000020: c102 33be 43e5 3c3d facf 43be 8819 da3d
00000030: 288a 00be 5399 123d 2cca 8f3e 8685 1bbd
00000040: f5a4 70bd 8961 19be d6e0 64be 445e cf3b
00000050: c646 c1bd 06a3 533e 6501 4c3e 163d 213e
00000060: bfad 36be 2e32 153e 7fe6 7b3d 9a6c 02be
00000070: a3ac 04be 6f05 233e af12 43be e9ea ec3d
00000080: 74ea 393e 8cae 033e 518d 743d e969 e8bd
00000090: c757 b63d e250 2a3e 870f 5dbc 2dd9 a63d
000000a0: a08c ca3c 6dbb ee3c a39c 59be 3c2a 593e
000000b0: 7fc3 40be 36d1 afbd 1356 39bd e387 04be
000000c0: 8201 fbbd bc7f 3ebe 9406 f23d 27b2 e9bd
000000d0: cc76 0cbd c1a9 a6bd 0795 07bd 2b20 f3bc
000000e0: 62a7 7c3d 3ac5 11be 3217 cd3d 9ddb 45be
000000f0: 07a8 8abd faf1 da3d 261e f3bd a192 553d
00000100: eed5 23be b180 0d3e 4a46 ff3d bbd4 643e
00000110: 89bc 4f3e 6ac1 a53b ea7d 4c3e a678 013e
00000120: e955 3dbe 6f1c 483e 6ea9 023d abd2 923d
00000130: ff64 323e 91ff 11be 9884 15bd 8524 353e
00000140: c130 a53d 7cdc 1d3e d4b9 0fbc 22ed e53b
00000150: cdbd debc 54a9 563e e86b 6ebd 2c88 87bb
00000160: 16a3 093e f2e9 54bc b900 443d 034f 8cbd
00000170: 2977 2b3d e063 203e e21a 38bd 0075 e33b
00000180: 3048 003e f8da 0bbd 3dce 4c3e ec84 313d
00000190: 2f5a 5dbe a296 013e 0209 143e 3abc 3a3d
000001a0: 5927 4bbe 4d1a 0abd 2c54 4abe f5d0 043e
000001b0: b514 44bc b926 1bbe bcdc 203e b98c 543e
000001c0: 0a28 11bd 020d 51be 8f04 873e d832 a8bc
000001d0: b317 9f3d 5d8b 4abe de8c 03be 0b0f 2abd
000001e0: a6a2 debd bafb 48be cf39 05be 0631 20be
000001f0: fd75 03be 27fa 9d3d 422d 2cbd 037a ab3d
00000200: debd 543e dd4a f2bd 9a05 1ebd c62d 363d
00000210: 906a 6dbb c904 853d 323b 873e 4643 883c
00000220: 148b 573e af2b c5bd bbf7 023e dd4d 643e
00000230: 0e9c 43bc e57b 043d bf16 ab3e ccdb f03b
00000240: 4294 c53d 0d38 5abd 02c3 c43c 7179 34be
00000250: d36f 33be 1d93 07be 5358 553e 2bc4 00bd
00000260: 9b5c 0c3e 5a9f b9bc 7fc3 a5bd f868 36be
00000270: 9ae0 353e cd0d 13bd 7e3b 10bd 8638 1cbc
00000280: 88bb ae3c c0cc 2ebe 16d1 a03c d9a0 26be
00000290: d712 9abc 591b 80bc a1c2 90bd 72c0 763d
000002a0: b793 5bbe 43d2 93bd 5529 333e 3f4e 653e
000002b0: 98b7 3ebd 43ef 0a3e 5bbc 033c 3a18 b33d
000002c0: b50c 13bd 52c2 69bd c142 b3bd 7c72 f3bd
000002d0: 122c 88be 4538 b9bd 6bc3 053e b7da a03d
000002e0: ff44 7fbe 814e 31be 2750 643e 1942 38be
000002f0: c129 16be 4d81 18bc 9be5 233e 84d5 fcbd
00000300: c082 9ebd 5986 123d 1eae 973e 31bb d93d
00000310: 019e 55be 2698 76bc eb44 b33d a25e 8c3d
00000320: 01ed bdbd f7e7 b73b 9289 363d 7070 d1bb
00000330: f166 2b3e dcac 803b 798c 25be fb7d 3f3e
00000340: 04be ba3d 2375 313e 5eb5 37be 2b05 053e
00000350: c0f5 86bd 59ef 2ebe af93 67be d0da 56be
00000360: 0bb6 a0bd 1c37 df3c 2992 4ebe f815 b83c
00000370: 11ab a73d a0eb 30be cdb3 1a3e 6061 3cbe
00000380: 7a53 22be 2a79 443e 571f 8e3c 5399 013c
00000390: 36f7 e63d 3c69 cebd 6938 c9bd 69c9 45be
000003a0: 6d33 a53d a8b1 0a3e 2ac8 37be 3ddc 4dbd
000003b0: 8c18 5a3e 6ce7 56be 8fbe 31bd cf6a 243e
000003c0: 4848 75bd 4285 00be f76b 13bd 3090 7e3c
000003d0: 94a8 59bc ba4c 653d 9726 503d e415 33be
000003e0: 2615 b9bd af3e 3dbe 4951 c9bd 8d50 38bd
000003f0: 1a95 d4bd 2739 5d3e 49d9 393e 3939 5abd
-0.055109963 0.07339159 -0.010253287 0.14638539 -0.0959008 0.16379999 0.260013 -0.05244596
-0.1748152 0.04611708 -0.19122306 0.10649401 -0.12552702 0.035790753 0.28083932 -0.037969135
-0.058751065 -0.14978613 -0.22351393 0.006328376 -0.09437327 0.20667657 0.19922407 0.15745959
-0.17839716 0.14569923 0.061499115 -0.1273674 -0.1295648 0.15920042 -0.19050096 0.11568243
0.18155843 0.12859553 0.059705082 -0.11348326 0.08903461 0.16632417 -0.013492472 0.08146892
0.024725258 0.029142106 -0.21251158 0.21207517 -0.18824576 -0.08584826 -0.045248102 -0.12942462
-0.12256147 -0.18603414 0.11817661 -0.11410933 -0.03429298 -0.08137847 -0.033101108 -0.029678425
0.061683066 -0.14235392 0.1001419 -0.19322057 -0.0677033 0.106906846 -0.11870985 0.05214179
-0.15999576 0.13818623 0.124645784 0.22346775 0.20286764 0.005058457 0.19969907 0.1264368
-0.18489803 0.19542097 0.031899862 0.07169088 0.1742134 -0.14257647 -0.036503404 0.17689712
0.0806594 0.1541614 -0.008772332 0.007016794 -0.027190113 0.20963031 -0.058208376 -0.004136106
0.13441119 -0.01299523 0.04785225 -0.06851008 0.041861687 0.156631 -0.044947512 0.0069414377
0.12527537 -0.03414437 0.20000549 0.043339655 -0.21616434 0.12655118 0.14456561 0.045589663
-0.19839229 -0.03371649 -0.19758672 0.12970336 -0.011967828 -0.1515149 0.15709203 0.20756806
-0.035438575 -0.20415118 0.26370665 -0.020532057 0.07768192 -0.19779725 -0.12846705 -0.041518252
-0.108708665 -0.19627276 -0.13010333 -0.15643701 -0.12837978 0.077137284 -0.04203535 0.08372881
0.20775554 -0.11830685 -0.03857956 0.044477247 -0.0036226846 0.06495053 0.2641235 0.016633641
0.21049148 -0.096274726 0.12789814 0.22295327 -0.011939062 0.032344718 0.3341579 0.0073504206
0.096474186 -0.05327611 0.024018768 -0.17624451 -0.17523126 -0.13239713 0.20834474 -0.03143708
0.13707201 -0.022658993 -0.080939285 -0.1781348 0.1776146 -0.035901833 -0.035212986 -0.009534961
0.021329656 -0.17070293 0.01963095 -0.16272296 -0.018807812 -0.01563804 -0.070683725 0.060242124
-0.21443067 -0.072178386 0.17496236 0.2239313 -0.046561807 0.13567834 0.008040513 0.08744855
-0.03590079 -0.057070084 -0.08752967 -0.118870705 -0.26596123 -0.09043936 0.13062827 0.078542165
-0.24928664 -0.17315103 0.222962 -0.17993964 -0.14664365 -0.009308171 0.16005556 -0.123454124
-0.07739782 0.035772655 0.29625028 0.10631407 -0.20861055 -0.015050923 0.087533794 0.06853987
-0.092737205 0.005612369 0.04456479 -0.0063915774 0.16738488 0.0039268564 -0.16166867 0.18700401
0.09118274 0.1732984 -0.1794028 0.12990253 -0.06589842 -0.17083491 -0.2261493 -0.20981908
-0.07847222 0.027247958 -0.20172943 0.022471413 0.08186925 -0.17277384 0.15107651 -0.1839652
-0.15852156 0.19186845 0.017348928 0.0079100905 0.112776205 -0.100786656 -0.098252125 -0.19315113
0.08066449 0.13544333 -0.1794745 -0.050258864 0.21298426 -0.20986718 -0.04339462 0.16056369
-0.059883386 -0.12550834 -0.035991635 0.015537307 -0.013284821 0.055981375 0.050818052 -0.1748882
-0.09037237 -0.18480943 -0.09829957 -0.044998694 -0.10380001 0.21603833 0.18149294 -0.053277228

lstm.weight_hh_l1 f4 [80, 20]
00000000: 9053 a93e e39d 4e3e dc5f f6bb 8e15 413e
00000010: 12f9 753c b6ed 1fbe 0026 3a3e 59c6 09be
00000020: f5e0 d8bd 247e bcbd 2f06 f5bc 4f37 ccbe
00000030: 4fe1 ae3e 6875 6e3d 820a 093d 2029 f43d
00000040: 613e f93c b6c1 32be fc26 7e3e 6ca7 aebd
00000050: 42c8 2c3e 53ab 8c3e c1dd f7bd f484 413e
00000060: 812f 873e 4123 f33c 7e01 363e fc23 d4bd
00000070: 3580 29be 6c2c 9b3c d3ca 50be 6efd acbd
00000080: d3fc 313e f45a 50bd 75ec a3be ab95 a4bc
00000090: 3cd3 a1bd 0d08 d5bd 7dfa 2cbc 21b8 813e
000000a0: 20e3 af3c 6397 013d 8c87 f13c 32ad 773e
000000b0: bbc2 75bd 11ce 1f3e 3b7f 93bd c410 84be
000000c0: 8273 6dbe abdf 48be 9f88 6bbe ad14 b13c
000000d0: 5ebb 253d 8f7e d6bd 948f 74be 5480 213d
000000e0: df0d bbbd eb6f f1bc 899e 943e b88e 2d3e
000000f0: 61d7 a73e 88db ce3d a08d 19be 7ec8 663e
00000100: af82 82bd 027e 953e 908c 613e 0db3 88be
00000110: 5ad8 913d d1cd 7dbd e386 a6bc 30e2 5dbe
00000120: af07 843e c8b0 ae3e 32d8 c7bd 48db 37bd
00000130: 5eb7 0cbe 8304 703e 8eb4 143e e421 8c3e
00000140: 69aa 083e c6b1 9a3e b746 83be eb59 083e
00000150: 29d8 843e 90f1 b9bc b3c8 993d 1ecb 8ebe
00000160: 42bf f5bd 07e7 b83d d1fc 2e3c 812b c63d
00000170: a37c 3a3e 9ee5 9d3e 87c8 88bd 36cd 0b3d
00000180: e6bd 12be 4a85 5fbd 79a8 9abd dc10 cfbd
00000190: 6b1d 063e 7597 70bd e6a2 50be bb9f 623e
000001a0: c62c 89bd 979e c9bd 2a4f 57bd 1abd f93d
000001b0: 2ae6 0ebe 63b4 fdbc fa14 d3bb 9244 32be
000001c0: 93de c9bd 904c c23c 07d6 42be dd1b 0abe
000001d0: d2b6 7fbe 9843 b53d def4 0abe b019 ce3c
000001e0: 722f 973e abbe 4b3e 876e 22bd 1720 cd3d
000001f0: af2a 87bd 8f2d ee3d 1410 953e 8b55 82be
00000200: 0b9d 53be 11c5 cdbd 91e4 15be 5b70 99be
00000210: f2f5 32bd 30da 273e 8ec9 5ebe daf8 803b
00000220: 499f 91bd 5f2b 38bb 1945 f9bc aa30 c1bc
00000230: 774e 053e e93e 563e 6e2b 81be 63c1 a53e
00000240: df91 c2bd 93a9 583e 626d 3b3e 8944 77be
00000250: 522b dfbc e1e4 d13d a06b b03d 3c6d cc3d
00000260: 9ead 323e 2e08 e73d 0ee6 74be a726 f03d
00000270: 4fd2 323e 585f 7ebd c4f0 8a3e d955 4d3e
00000280: 89ff b63d c4cc 5d38 8b4f abbd 23d0 a93d
00000290: f39e fdbc 4ad7 8cbd 019e 7abd 93b8 67be
000002a0: 6646 d6bd 04b6 a5bd aa5b 4fbe 86a2 e9bc
000002b0: 0738 a93e 6ad8 a73e cfc3 0b3d 0b85 c43c
000002c0: d99f 293e fe01 133e 01b3 a93d f070 553b
000002d0: 06bb 1b3e 085b 1a3e ba1c 51be 520f 8a3e
000002e0: 47ce 653e 1a27 053e 39e0 1a3d 1ce2 66be
000002f0: dbbe 6fbd bef6 eabc a447 70be 11a8 57be
00000300: 983d b03d 3f12 323e f264 d5bd 58f1 91bd
00000310: f61e 8a3e 3f36 993e 2e96 0a3d cd82 053e
00000320: 6874 a23c 47f4 813d 2e6b 15bd 35f2 5d3e
00000330: b009 133d 476f de3d 46dc 82bd a0e2 18bd
00000340: fd03 eebd 62d4 04be 07c7 b9bd 866f 1abe
00000350: 7911 5d3e b828 a0bb 34e8 88be 0f43 e63c
00000360: 3187 82bd d03b dabd 33f9 f63d b187 013e
00000370: a28c 933e 7312 8a3e 7523 73be 5f9a 71bd
00000380: acea 953d d420 aabd 1507 543e e105 9f3c
00000390: 8a57 0dbe 3749 bfbd 51a9 37bb ee2a 87be
000003a0: c485 bfbc 0d81 27bd 5a37 82be 171d 27bd
000003b0: 6c0f f93d b921 0c3e fb8a 883b e305 523d
000003c0: f001 0f3e 7586 97bd 5d5c 53be 53be eb3c
000003d0: 11ee 7d3d aba1 553d b8e6 19be d577 48be
000003e0: fa87 5cbe 2488 653d 8da5 013e 9cd4 5dbe
000003f0: 601b db3c 159a 05be 09f6 b9bd a1eb e53d
0.33071566 0.20177417 -0.0075187515 0.18855879 0.015012996 -0.15618023 0.18178558 -0.1345457
-0.10589782 -0.09203747 -0.029910175 -0.39885947 0.34156272 0.058217436 0.033457287 0.119219065
0.030425252 -0.17456707 0.24819559 -0.08528027 0.16873267 0.2747446 -0.12102843 0.18898374
0.2640343 0.029679896 0.17774007 -0.10358426 -0.16552813 0.01894208 -0.20389871 -0.084467754
0.17381601 -0.05086799 -0.3201634 -0.020090898 -0.07901618 -0.10401926 -0.010557768 0.25335792
0.021470606 0.031638514 0.02948358 0.24187163 -0.060000163 0.15605952 -0.07202002 -0.2579404
-0.23188594 -0.19616573 -0.23001336 0.021616304 0.04046189 -0.10473358 -0.23882896 0.039429024
-0.09133505 -0.029472312 0.29027203 0.16948974 0.3278151 0.10100466 -0.14995432 0.22537419
-0.06372582 0.291977 0.22026277 -0.26699105 0.07121344 -0.06196386 -0.02032799 -0.21668315
0.25787112 0.34119248 -0.09758033 -0.044886857 -0.13741824 0.23439221 0.14522001 0.27369606
0.13346256 0.30213755 -0.2563989 0.13315551 0.25946167 -0.022698194 0.075089835 -0.2788934
-0.1199937 0.0902844 0.010680393 0.096762665 0.18211608 0.30839247 -0.066788726 0.03413125
-0.14330253 -0.054570474 -0.07551665 -0.101106375 0.1309716 -0.05873819 -0.20374641 0.22131245
-0.06697993 -0.09844702 -0.05256573 0.121942714 -0.13954988 -0.030969804 -0.0064417096 -0.1740897
-0.09856906 0.023718148 -0.19026957 -0.13487191 -0.24972084 0.08850783 -0.13569972 0.025158733
0.29528385 0.19896953 -0.03965619 0.10015886 -0.06599938 0.11629783 0.2911383 -0.2545589
-0.20665376 -0.10047353 -0.14637972 -0.29968533 -0.043691583 0.16391826 -0.21756575 0.0039359154
-0.07110459 -0.0028102023 -0.030428456 -0.023582775 0.13018213 0.20922436 -0.25228447 0.32374105
-0.09500479 0.21158437 0.18303445 -0.24147238 -0.027242336 0.10248733 0.08614278 0.09981772
0.17449042 0.11280857 -0.23915884 0.11726122 0.17463039 -0.062102646 0.27136815 0.2005228
0.08935458 5.288121e-05 -0.08364781 0.08291652 -0.030959582 -0.06877001 -0.06118584 -0.22629003
-0.10462646 -0.08091357 -0.20249811 -0.02851988 0.33050558 0.32782298 0.034122285 0.023989221
0.16564883 0.14356229 0.082860954 0.0032568537 0.15208063 0.15073788 -0.20421115 0.26964813
0.2244197 0.13003197 0.03781149 -0.22547191 -0.058531623 -0.028682109 -0.23464829 -0.21060206
0.08605498 0.17389773 -0.104196444 -0.07126111 0.26976746 0.299242 0.03383463 0.13038178
0.019830897 0.0634542 -0.036479168 0.21674426 0.03589791 0.10861068 -0.0638967 -0.0373255
-0.116218545 -0.12971643 -0.090711646 -0.15081605 0.21588697 -0.0048876666 -0.26739657 0.028108148
-0.06373442 -0.106559396 0.1205925 0.12649418 0.28818232 0.269672 -0.23743995 -0.05898511
0.07320151 -0.08307043 0.20705827 0.019411983 -0.13802925 -0.093401365 -0.0028024504 -0.2639994
-0.023379214 -0.040894557 -0.25432855 -0.040799227 0.121611446 0.13684739 0.0041669584 0.051275145
0.13965583 -0.073986925 -0.20640703 0.028777277 0.061994616 0.05215613 -0.15029418 -0.19576962
-0.21536246 0.056038037 0.12660809 -0.21663135 0.026746452 -0.13047059 -0.090801306 0.11226583

lstm.bias_ih_l1 f4 [80]
00000000: 027d 22bc e6a3 d03c b89e 533d 65f0 5f3e
00000010: e5a9 cebd 9e40 47be 7798 9b3d 375b e93d
00000020: 488a 493e 8cb3 003e 44ad a83e 1c04 873e
00000030: d67b 4abe 20f6 43bd bf26 743e b4ad 583e
00000040: 5c54 58be 32fa fa3c c6b9 7dbd af2f 2b3e
00000050: 1630 8b3e cad3 0cbe ac88 903e ee7d 963d
00000060: 1e68 cd3c ad0e 0e3e 16e7 2ebd 9a0a 7d3e
00000070: 91ad 203e dbd1 a93e 9feb c3bd c8d2 053e
00000080: 4a33 05be acdb cd3c 0a6d 673e fc12 eb3b
00000090: 5f33 27bd 6791 4bbe f932 243e 4c64 333e
000000a0: 50e0 3ebc a55e a0bd 97f8 7abe 7e11 aa3e
000000b0: 8510 3fbc eecf 143e 3a13 adbd c816 253d
000000c0: 6394 64be e839 eb3b d46e 5cbe 7712 0cbe
000000d0: e667 d6bb 8d68 8c3e f2f3 173c 00e3 a53c
000000e0: cd61 e93c 20d2 abbd 3e30 4b3e f453 ee3d
000000f0: fb42 d03d f3c1 c1bd 2c21 833e 0d18 a53e
00000100: 0649 293d 164d 423e 8428 b03d 5b8f 73bd
00000110: 4a1f 0b3e 8a74 9d3e d554 efbc d2b5 9ebc
00000120: f33d 48bc 78cd 893e be08 4dbd f0f7 9e3e
00000130: e310 303e 9738 a73d 49de 423e 9aa5 a53d
-0.0099174995 0.025468778 0.051665038 0.21869047 -0.100909986 -0.19458243 0.0759744 0.11394351
0.19681656 0.12568492 0.3294469 0.26370323 -0.19773802 -0.047842145 0.23842905 0.21160012
-0.2112593 0.03063688 -0.061944745 0.16717409 0.27185124 -0.13752666 0.28229272 0.07348238
0.025074061 0.13872786 -0.04270085 0.24711075 0.1569121 0.3316792 -0.095664255 0.13068688
-0.13007846 0.025129162 0.22600189 0.007173894 -0.040820476 -0.19879685 0.1603507 0.17518729
-0.01165016 -0.07830552 -0.24508892 0.3321647 -0.011661653 0.14532444 -0.08450933 0.04030493
-0.2232223 0.007178534 -0.21526653 -0.13678919 -0.0065431474 0.27423516 0.00927447 0.020249844
0.028489018 -0.083896875 0.19842622 0.116371065 0.101690255 -0.09460821 0.25611246 0.32244912
0.041329406 0.18974718 0.08601478 -0.059462886 0.13586155 0.30752975 -0.029215256 -0.019373808
-0.012221801 0.26914573 -0.050057165 0.31048536 0.17193942 0.081650905 0.19030108 0.080882266

lstm.bias_hh_l1 f4 [80]
00000000: 4eee 45bd d251 9a3e 09b4 0cbe 9b9b 043e
00000010: 171b 65bd a635 273e 581a 7e3e cf86 40bc
00000020: 5bce 653e 4bc4 943e 6206 5d3e e966 733e
00000030: e99e 01be ce4c abbd b2aa dabd 1d14 b83d
00000040: 15a7 07be ff83 78be a706 c2bc 5177 d2bd
00000050: b579 77bd d43c 7abd d1d1 023e 6d14 5a3e
00000060: 91f5 d4bd f44c 3ebe 00b8 b53c 6e6c bf3d
00000070: f708 14bb 48b0 923e 2fcf 8f3e d59f 3b3e
00000080: d62b a13d 26da 623a 0e32 a4bd fb1b 373d
00000090: b19e 81be d0b9 19be f0e8 9f3c d529 1b3e
000000a0: 272c adbd 5a2f 823b 153b ac3c f693 2e3e
000000b0: f05c a93c d192 623e a4ea 3e3e afbb 16be
000000c0: b86d 97be 247d 48be ef03 5dbd 3d0f febc
000000d0: 3571 433e 6e1c 313e 72e9 a2bd f098 6a3e
000000e0: 8501 e03d 18a6 92bd f06a 6c3e 5f0c 9c3e
000000f0: fb5c 4b3e fd41 613e eee6 4a3e 76c6 9a3e
00000100: 9740 953d b09d b5bd 53cb 233e 11f2 12bd
00000110: 9e61 2b3e 3b02 89bd 358e ab3e 1aa5 833e
00000120: f8b8 f7bd 1270 a13e a7ad 28bd ea32 35bd
00000130: 4197 babd 762f c63d 0cf6 673e 7add 6fbd
-0.04832297 0.3014055 -0.13740553 0.12949984 -0.055934038 0.16329059 0.24814737 -0.011750891
0.22442 0.2905601 0.21584466 0.23769726 -0.12658276 -0.08364259 -0.10677089 0.08988211
-0.1324733 -0.24269103 -0.023684813 -0.10276664 -0.060418803 -0.061093166 0.12775351 0.21296854
-0.103984006 -0.18584043 0.022182465 0.09346853 -0.0022588351 0.28650117 0.28087756 0.1832269
0.07869689 0.00086537225 -0.0801736 0.04470442 -0.25316384 -0.15012288 0.019520253 0.15152676
-0.08455687 0.00397293 0.021024266 0.1704863 0.020674199 0.22126319 0.18644196 -0.14720033
-0.29575896 -0.19578987 -0.05395883 -0.031013126 0.19086154 0.17296001 -0.079546824 0.22909904
0.1093779 -0.07160586 0.23087668 0.30478188 0.19859688 0.21997829 0.19814655 0.3022954
0.0728771 -0.08867967 0.15995531 -0.035875384 0.16736457 -0.066898786 0.33506933 0.257119
-0.12095827 0.31530815 -0.041181233 -0.04423801 -0.09110881 0.09677021 0.22652453 -0.058560826
